models/reference/hnet_model.pt (torch, 402955 bytes, 9 tensors)

gru.weight_ih_l0 f4 [384, 2]
00000000: 5125 b13d dfa8 5c3d b896 9e3d f854 bf3e
00000010: 649a b13e 31e8 dcbd c693 f5bd f4fc 09bd
00000020: 648a 28be de70 ba3d 8cbd 0abd 9e84 7ebe
00000030: 8924 613e 95fa 223b 6b0f be3d 28fa aebd
00000040: 32fd 363f e8a9 81bb bd61 19be bb99 913e
00000050: c146 0bbe 8c2e 07be e277 90bc 0317 503e
00000060: d0fd 84be b096 41be 9ffc 633e 591f 91be
00000070: 16ec 1dbe 48ad a3be 0104 463d f6ba 7f3e
00000080: 8089 7cbe 775e f73d a40c 43be 05de a6bd
00000090: 895b 933c 5f1d c23d 2177 9dbc 7bd6 97be
000000a0: 0663 4a3e c8e4 0c3e 91ce db3d 76e2 363e
000000b0: 5ca6 db3e 3074 a6be fba3 b9be fc4d 963e
000000c0: 4a8f 4abd 3291 02bd 82f7 5cbd 2cfb 94be
000000d0: 9d6d 31be 71c8 e1bd 55ba 33be c842 d0bd
000000e0: 7b7b 5a3e aecd ee3d 2e02 0f3f 110a 173f
000000f0: ec13 30bf 5564 30be 6aee 463e 4b93 133d
00000100: 3b01 043d 2355 22be d0c4 a2be 9b8e d8bc
00000110: cd8b 8e3b e118 81bd 6b1a 103f f60d babd
00000120: 39dc 08be a30e 17be 6122 0fbf 7c94 52bd
00000130: 505c 203e 7250 683d be27 f7bc 2ffd 8a3e
00000140: 8ea3 abbe 9772 7bbd 11c1 963e 164d d2be
00000150: 27d7 4f3e bb66 14be 39e7 b33d 387b 8fbe
00000160: 11d2 2abc 1780 6e3c bed0 673e 9f90 763e
00000170: 4c6d 843e 7190 273e 9221 04bf c127 213e
00000180: b33e 003f a3cb ce3d e05d 22be 8fb3 dfbd
00000190: 9a54 2dbf 6b6a 213f 1b7d 4ebe 32e3 b5bd
000001a0: ec51 23bd 12fc 16bd 6a40 1abe e61c 7cbe
000001b0: 18f1 03bf 2350 dc3d 9a12 26be b8d8 693c
000001c0: f080 02be fdf0 843d 0a82 ed3d 8bec f5be
000001d0: 34a0 cebd b499 88be 532d 8a3c a073 46be
000001e0: 72a5 b3be b69a 64be d672 913d 7abc 7bbe
000001f0: 1c12 0abe e1e3 cbbd 5a1f b9be cfe9 c2be
00000200: 42b4 233d 76f1 b1bb 5601 633e 1f0f 2abd
00000210: 21ae 82be 9587 02ba f6fc 45be 4c15 2abe
00000220: cf81 0ebe 7811 efbe 5afb b13d a9e5 fabd
00000230: 2e25 6abe b9b3 a3be 34dc 2b3e 78b0 81be
00000240: 954f 313e bf53 933d 3c6e c63d bab9 8d3e
00000250: b2b9 9e3d cfef f9bd 734c cdbd 1557 f53d
00000260: 04f9 c1bd a1d8 3bbe 53b4 8c3d 3951 e1bc
00000270: 0955 78bd ba21 debe 987c 143f c66c afbe
00000280: 6150 853d 6628 3abe c7ae 5fbd a140 0fbd
00000290: 64da c13d e4f9 b33c 5608 aebe ebe1 583e
000002a0: 3762 12be 4441 0f3e a11c 793d 16bc 8cbd
000002b0: ecf6 3a3f b11a b2be 20f6 33be 5e2f f7bd
000002c0: f5c5 b5be b85b f53e 359d 843e acb8 84bd
000002d0: a128 84bd cd6d a0be 935b cfbd 73ad adbe
000002e0: 230e 44be 25c8 08bf a2f9 90bd 80b8 e63d
000002f0: 798b 853e 0b7d 53be f07f 95be f936 2dbe
00000300: 95ba 0b3f d439 11be e8e8 c6be 1294 08be
00000310: 89d5 54be 2366 04be caa7 6ebe 0639 0cbd
00000320: 55bb 7cbd a837 06bf 7da6 3cbe 6b06 e63d
00000330: 36f4 46bd 6162 03bf 53de 6ebe 9eb0 853d
00000340: a7cb 90bd 0d41 33bd 024f 2dbe d461 313e
00000350: 3701 cfbd f1b1 cfbe 21db 433d 45be 79be
00000360: cd34 ccbc 4eed 0f3f 359f 55bb a52a 1cbc
00000370: 6a4a efbb d879 6d3d a5c5 09bd b092 c93d
00000380: d404 25bd e7a6 53be 7823 e33d 2d31 dd3c
00000390: 55f0 c5bd ad33 aabe 4bec cbbe 4814 a83e
000003a0: 3dbf b03f 8091 ae3f 349c 70bd 84bc 4bbe
000003b0: 2cf8 ab3e 918f c3be 2239 2bbe e92a 0ebf
000003c0: fc82 853e 3216 9abe efc8 babc 7bc4 f3bc
000003d0: 778a 9e3d acc7 a3be 0c25 32bd 3c81 2a3f
000003e0: 5045 8cbe 1789 a23e 4344 25be b12c 5cbe
000003f0: ed38 a4be 6130 a43e 13eb a93d 1e1a c3be
0.08649696 0.053871986 0.07743591 0.37369514 0.34688103 -0.107864745 -0.11991076 -0.0336885
-0.16459042 0.09103559 -0.033872172 -0.24855277 0.21986593 0.0024868597 0.092802845 -0.08543807
0.71480095 -0.003957022 -0.1497869 0.284376 -0.13601209 -0.1320135 -0.01763529 0.20321278
-0.25974894 -0.18905139 0.22264336 -0.2834423 -0.15422091 -0.3196814 0.048343662 0.24973664
-0.24661827 0.120785646 -0.19047791 -0.081478156 0.017987983 0.09478258 -0.019221844 -0.29655823
0.19764337 0.13759148 0.10732759 0.17859825 0.4290036 -0.3251052 -0.3625792 0.29356372
-0.049453057 -0.03187675 -0.05394698 -0.2909788 -0.1732697 -0.11024559 -0.17551549 -0.101689875
0.21336167 0.11660324 0.558627 0.58999735 -0.687804 -0.17225774 0.19426885 0.03602914
0.032227736 -0.1585279 -0.3179078 -0.026435187 0.0043501616 -0.063035734 0.5629031 -0.09084694
-0.13365258 -0.14751677 -0.55911833 -0.051411137 0.15660214 0.056717344 -0.030170318 0.2714629
-0.3352322 -0.06138858 0.29444173 -0.41074437 0.20296918 -0.14492314 0.087843366 -0.28023696
-0.01042606 0.014556906 0.22638223 0.24078606 0.25864637 0.16363694 -0.51613724 0.15737821
0.5009567 0.10097434 -0.15856123 -0.1092292 -0.67707217 0.63053006 -0.20164911 -0.08881225
-0.03987305 -0.036861487 -0.15063635 -0.24620399 -0.51539755 0.10757472 -0.16218033 0.014272861
-0.12744498 0.06491277 0.115970686 -0.4803203 -0.1008915 -0.26679766 0.016867315 -0.19380045
-0.35087162 -0.22324643 0.07101981 -0.24583617 -0.1348347 -0.09955574 -0.36156732 -0.38069007
0.03996683 -0.0054303957 0.22168478 -0.041518327 -0.25523475 -0.000497931 -0.19334778 -0.16609687
-0.13916706 -0.46693015 0.0869052 -0.122508354 -0.22865745 -0.31973055 0.1678322 -0.25329947
0.17315514 0.07193708 0.09688994 0.2768076 0.07750262 -0.12203943 -0.10024347 0.119795
-0.09471324 -0.18344356 0.068703316 -0.02750455 -0.06062797 -0.43385106 0.58002615 -0.34262675
0.06509472 -0.18179473 -0.05461004 -0.034973744 0.09465483 0.021969743 -0.33990735 0.21179931
-0.14295278 0.1398974 0.06081832 -0.06871812 0.7303302 -0.3478599 -0.17574358 -0.120695814
-0.35502592 0.47921538 0.2590119 -0.06480536 -0.06453062 -0.3133377 -0.10124888 -0.33921394
-0.19146018 -0.53430396 -0.07078864 0.11265659 0.26082972 -0.20653169 -0.2919917 -0.16915502
0.54581577 -0.14182216 -0.38849568 -0.13337734 -0.20784582 -0.12929587 -0.23306194 -0.03423407
-0.06170209 -0.52428675 -0.18422885 0.11231693 -0.04857274 -0.5132199 -0.23326997 0.06527828
-0.070700936 -0.04376321 -0.1692467 0.17322475 -0.101076536 -0.40565446 0.0478164 -0.24388988
-0.024927521 0.56221473 -0.0032596115 -0.009531652 -0.007302572 0.057977527 -0.033635754 0.098424315
-0.040287808 -0.20669137 0.110907495 0.027000988 -0.0966498 -0.3324255 -0.39828715 0.32827973
1.3808361 1.3638153 -0.058742717 -0.19896132 0.33587778 -0.3819547 -0.16721013 -0.55534226
0.26076496 -0.3009506 -0.02280089 -0.029756775 0.07741254 -0.31988275 -0.043492362 0.66603446
-0.2739663 0.31745216 -0.16139321 -0.21501423 -0.3207468 0.3206816 0.0829679 -0.38105863

gru.weight_hh_l0 f4 [384, 128]
00000000: 93d3 903d 3f66 99bc d35a 163e a556 30bd
00000010: b5e7 4f3e 6357 69bd de57 ccbd 04eb 07be
00000020: 8b87 a43d 1eb7 f5bd 466b 58bd dc19 50be
00000030: ac16 e73b 4735 46be 56a7 593d 8121 23bd
00000040: 327e 963d 1d81 1dbe ff3c 0b3d 6f98 c0bd
00000050: a54a 23be a394 7b3e 2079 b4bd fb8d 663d
00000060: fc2d 443e 32d5 523c 3e7c 223e a233 25be
00000070: 5ff4 11bc 5f5a 83bd bd25 b9be 87c2 873d
00000080: 55be 78bd 5db1 19be 831d 493d 55e4 86bb
00000090: 7305 06be 6dcb 0abe ffad 16be 2bb2 84bc
000000a0: 68a6 dd3d 60fe 08bc 1051 5c3d 7ce8 313d
000000b0: dddc 913d a3fd 77bd d36c 8e3e 957b f8bd
000000c0: 1fd0 983d eff8 0fbc 41c9 033e c538 413e
000000d0: 02dc 093d 7711 eb3b 532a 2fbe 9f92 9dbd
000000e0: 639a 393e e7ae 783e 0563 e13c 9a86 a5bc
000000f0: da83 b83e b262 7c3d 3f56 9d3d 2525 b1be
00000100: e23a 0ebe bb2a dabd c5f3 b2bd 09aa d13a
00000110: 198d a7be 477a 1ebe 7f77 fa3b 89af afbd
00000120: 508f 213e 0b39 8dbe 6e02 0ebc 4b00 853a
00000130: 1dfd d7bd 0493 8ebd 14a9 14be 6656 1bbe
00000140: 5fc4 0f3b 995c 743c 1c21 653e 3f6e 023b
00000150: c2f8 173e a537 cd3d b766 35be 1a8d 0b3e
00000160: 2af8 273e f441 0bbc 651a 74bb f203 30bd
00000170: 4cb4 733e dd13 a3bd 069c 0b3e fd45 71be
00000180: 8a61 14bd 5fe5 2ebd 110a 4e3d a8c7 123e
00000190: 7df2 ffbd caf3 01be 13e9 aa3c f870 363e
000001a0: 9690 9cbc d308 2cbd ab76 833e 8cbb acbe
000001b0: 31c9 36be 709f 1a3e 28cf 9b3d fe37 d93c
000001c0: 9686 803d 3a58 b9bc 14e4 1bbd 1242 383e
000001d0: 30fc f2bc 1f79 ad3d b3c7 ffbd 789e 87bc
000001e0: 33f2 8abe 4ae2 8cbd 7974 22be db48 313e
000001f0: f719 e2be 2ce0 863d daab 113e a5e7 373e
00000200: f69c 1fbd 61f0 41be 283d edbd 65b2 0abc
00000210: a2a9 303e 9126 663d 697f ff3d 9763 1b3c
00000220: 00c3 5d3b aed6 03bd d6b7 9abd fb6f ca3c
00000230: 93af ccbc e981 febc 3a95 b1bd 7fbd b33d
00000240: 9e2d c93d 2696 663d 1b6e cd3d 61ad d1bc
00000250: 5130 4cbd bac5 823c e0d6 273e 37bc 1a3c
00000260: a64d 2fbd 3a6b 4fbc 7bb5 99bd 0b6a 9abe
00000270: 38d7 4d3d 4932 8ebe f209 72bd cf68 0f3e
00000280: 2240 fcbc 9b36 cf3c 7737 983d 111d 0fbd
00000290: 736f 3cbd 5fe8 0cbd 0a0e 75bd e6d9 4fbc
000002a0: a74f 9cbd fb07 be3c 9122 373c 75bf 9abc
000002b0: 2f02 c9bd a770 cbbd 2d8f 39bd 0b90 c7bc
000002c0: 5d2b 893e 1c16 723d 0782 06be f52b 07bd
000002d0: 5366 98bd 23db 673d 6644 9f3d b375 49bd
000002e0: d6ed 343d 2e8e 863c fc79 013d 1620 c5bd
000002f0: 5b8b bcbd 6054 68bd cac7 9e3d 77cc b1bc
00000300: 5f1a 52bd 462d 733c 1cd2 a8bd e7c2 833b
00000310: 0a5e 513b aa41 fd3d c9a2 483d 302f 2dbc
00000320: 5126 4f3c 3dae cbbc 9f89 113c 63ad f0bb
00000330: 6f21 803d 2b2b d7bb 8afe e53d d5c7 343c
00000340: ff86 9cbc 7e5b 763d b8bb d93c f9f3 5b3d
00000350: 0517 f3bc 3f05 5ebd 9709 823d bddf 833d
00000360: b7d6 f4bd a5fb 83bb b5d1 e2bc c710 293d
00000370: db7c 493d a049 8bbd b8bf 9fbd 6d64 0c3d
00000380: 2bda 78bc 98ff 14bd d5eb 3e3d 7ee3 91bd
00000390: da5f 19bc 00a1 233d edb3 31bc 4f88 c0bd
000003a0: baf0 513d 156b 20bd dd24 aebd afa7 d93d
000003b0: 5057 863d 9a11 33bd 8fdc 5abd e1b6 1539
000003c0: 89d3 0bbd dfbc 6bbc 4fed 073d a282 013d
000003d0: 57e9 c9be 2746 c43c b159 e03c beb3 833d
000003e0: b189 53be b98e 663d 4e9f 843d 9773 2e3d
000003f0: 75ca b13b 2061 89bd b3f5 e8bd 7324 9cbd
0.070716046 -0.018725513 0.14683084 -0.04305138 0.20303233 -0.056968104 -0.09977697 -0.13273245
0.08033665 -0.119978175 -0.05283668 -0.20322365 0.0070522632 -0.19356261 0.0531381 -0.039826874
0.073482886 -0.15381284 0.033993717 -0.094040744 -0.15946443 0.24568419 -0.08812165 0.056287747
0.19158167 0.012868213 0.15867707 -0.16132978 -0.00890836 -0.06413721 -0.36161605 0.066289
-0.06072839 -0.15009065 0.04910041 -0.004116575 -0.13088016 -0.13554163 -0.14714812 -0.016198238
0.10822755 -0.008361429 0.053788245 0.043434605 0.071222045 -0.06054462 0.278174 -0.121329464
0.07461571 -0.008787378 0.12869741 0.18869312 0.03365708 0.007173713 -0.17105989 -0.076939814
0.181253 0.2428547 0.027513037 -0.020205785 0.36038095 0.06161756 0.07682466 -0.34598652
-0.1388965 -0.106526814 -0.087379016 0.0015996109 -0.32724836 -0.15476333 0.0076436396 -0.085784025
0.15777326 -0.27582583 -0.0086675715 0.0010147182 -0.105463244 -0.06961635 -0.14517623 -0.15169677
0.0021937115 0.014914655 0.22375911 0.0019902138 0.14840987 0.10020379 -0.17714964 0.13628045
0.16403261 -0.008499611 -0.0037247178 -0.042972513 0.23799247 -0.07962773 0.13633737 -0.23561855
-0.036225833 -0.042699214 0.05030257 0.14333975 -0.12497423 -0.12690654 0.020863092 0.17816532
-0.019111913 -0.042000603 0.25676474 -0.33736837 -0.17850186 0.15099883 0.07607871 0.026515957
0.0627567 -0.022625078 -0.03805931 0.17993954 -0.029661268 0.08470368 -0.124892615 -0.016555056
-0.27137908 -0.06879099 -0.15864743 0.17312948 -0.44160435 0.06585726 0.14225712 0.17959459
-0.03896805 -0.18939354 -0.1158393 -0.008465384 0.1725221 0.056189124 0.124754734 0.009484193
0.0033838153 -0.032187156 -0.07554595 0.0247116 -0.024986064 -0.031067805 -0.08671041 0.08776378
0.09823154 0.056295536 0.100307666 -0.025595369 -0.049850766 0.015963424 0.16390562 0.009444288
-0.04279866 -0.012659842 -0.07505318 -0.3015903 0.050254077 -0.2777274 -0.059091516 0.14004825
-0.0307923 0.025294593 0.07432454 -0.03493983 -0.046004724 -0.034401294 -0.05982784 -0.012686228
-0.0763238 0.023197165 0.011177675 -0.018890122 -0.098148696 -0.09933596 -0.04530256 -0.024360677
0.26790896 0.059103116 -0.13135539 -0.033000905 -0.07441392 0.05660547 0.07776718 -0.049184512
0.04417213 0.016425218 0.031610474 -0.096252605 -0.092062674 -0.05672109 0.077529505 -0.021703942
-0.05129468 0.014842337 -0.082432 0.004021037 0.003194692 0.1236604 0.04898337 -0.010570332
0.012643413 -0.024863357 0.008882909 -0.007344888 0.06256377 -0.0065664253 0.1123019 0.011033972
-0.01910734 0.060145847 0.02657877 0.053699467 -0.029674063 -0.05420422 0.06349485 0.06439159
-0.11955016 -0.004027801 -0.027687887 0.041275766 0.049191337 -0.06801152 -0.07800239 0.03427546
-0.015188734 -0.036376566 0.046611626 -0.07123469 -0.009361232 0.039948463 -0.01084612 -0.09400999
0.051254965 -0.03916462 -0.08503125 0.10627686 0.06559622 -0.043717958 -0.053432997 0.00014277875
-0.034137283 -0.014388292 0.0331853 0.03161872 -0.39435837 0.023959232 0.027386518 0.064307675
-0.20657994 0.056288455 0.064756975 0.042590704 0.005425746 -0.06707978 -0.113749884 -0.0762414

gru.bias_ih_l0 f4 [384]
00000000: db04 c0bc 101d 143d c60d ee3d 4459 403c
00000010: 9419 46be 6d92 08bd 224c 66bd 1b4e 9bbe
00000020: 8ac0 0fbe aa8b 72be 48d2 1d3e 7f46 9e3c
00000030: 7734 b3bd 7be7 fe3d 6d65 18be 5bb2 453e
00000040: 752f 0a3d 90c9 0fbe d95e 3c3d 12f8 5dbd
00000050: a7c1 723e df35 b43d 87db 643f e421 21be
00000060: 1ea1 38bd c220 513d 3a4b a93e 37f0 063c
00000070: a193 c83e c9ee e03d a1ee bfbc 29dc 163e
00000080: 8082 103d 05a3 283d c91a 113d ad15 d8bc
00000090: 7148 f8bd 98f0 80bd 8605 5f3e e2d4 02be
000000a0: 73d7 0cbe 02a0 20bd ae76 2e3c 2a83 71be
000000b0: 60e4 aabd 8ab3 11bc 7f08 de3d 1b7d 9f3c
000000c0: bd09 983e c39e f1bc bd14 b2bd 9f26 34bc
000000d0: 7483 1bbe 9a55 8e3e c405 ce3d aa86 30bc
000000e0: 7cf2 b6bd cd30 ad3d 05ed 38bd fa65 513e
000000f0: 6570 373d eaf5 e1bc acc7 00bd ecb0 163e
00000100: c189 3bbe e717 873e 2425 183d dadf 90bd
00000110: b527 8dbd bbe8 f2bd e188 4bbd 9619 123d
00000120: 2a6a a0bb ecde 9c3c 7271 10be 7062 85bc
00000130: e88e d7bd 4af5 f4bd 2946 193d 8937 83bd
00000140: 6f48 b73c a028 1b3e 5083 b53e 1d3d fdbc
00000150: cbfb 603d 5dfa 8cbd df9b 1bbd 5cd6 6a3e
00000160: cd49 103d 74bb fc3d 2d8c f7ba 18eb 06be
00000170: 2a65 b43c b614 9e3d 63c1 ad3c 734e 1a3d
00000180: 330a 0abe 3574 1d3e 7a9c 20be 8a22 96bd
00000190: d970 353e a5c9 913d 2c0a 103c c9b4 05bd
000001a0: 6316 08be a17e 68bc 308f 063f 9203 dabd
000001b0: 2c66 b53e 1529 2c3d 3899 973d be38 253d
000001c0: 38eb bcbd b20d fcbd 7cf2 71bd 9072 82bd
000001d0: 3e43 d03c e41d d0bd 367b e93c d411 253d
000001e0: 2a29 dfbd 062f efbd 86fb 84bc 8528 6d3e
000001f0: 6830 8bbd d708 ba3e 6994 d43c c603 e73c
00000200: 25ba ebbd 53a3 9abe ec36 e3be af6b 99bd
00000210: 60cc 7bbe 8513 c1bd 2c55 9ebe d1b3 fdbc
00000220: 5fea 3ebd 8345 97be 362f 76bd 6f3b 873e
00000230: b5bf 2bbe a1e3 09be 498f 18be b194 3a3c
00000240: 365a 8dbe 5ae7 263d 8323 59bc 3310 b83d
00000250: be0e 8b3d 2487 b03d a9eb 45bf cd33 74be
00000260: 68dc 3e3c c49d 81be ebd2 8fbe 1ac3 41be
00000270: 4041 20be 6963 71be 798b afbe 4033 19be
00000280: aa91 543d 7663 75be b0f2 2a3e 36db 23bc
00000290: a518 993d 86b5 71be 05f8 5b3d aa93 3cbe
000002a0: 9f05 5dbe 4969 8fbd fa93 683e 6cf1 d1bd
000002b0: 6353 92bd 87f8 bcbd c042 763d 3d0a 6ebe
000002c0: ee8f 0dbf ec00 dbbd e66f b3be b787 aebe
000002d0: 5a76 1bbe 19c0 89be 8206 50be 5294 90bc
000002e0: cce6 38be cd09 60be 5dbe 61be 6bcc febd
000002f0: fdfc d8bd 622c 07be 20f8 d93c 7e23 04be
00000300: 81b9 8dbd 8950 723d 2e97 f93d f715 b2bd
00000310: 566b 4cbe a655 91be fdf5 17be 17c0 303e
00000320: 7793 923c 85ec 40bd 3f99 103c fddc afbe
00000330: 4dcd 2fbe 5d3b 79bd ca27 02bf 6daa bcbe
00000340: 6e74 55be 9abf 093e 99b9 08be d2aa 67be
00000350: bb16 74be 51e9 a8bd c2a1 81be b144 ccbd
00000360: 9337 88be 0420 673d ba0f bcbe 1065 8abd
00000370: 96ad d13d 2b72 96be 2e2f adbe 9f8c 263d
00000380: d9e6 cdbe fc25 3c3c 1bf2 e5bd 8b05 ecbe
00000390: e89b 5cbe f8d0 cebd a33e f4bd ea55 edbd
000003a0: 9b5e 09be 0ece 603e 1c0f 9bbe 46f9 c7be
000003b0: da57 9dbe 379b 5bbd 7525 e0bd 54ed 45bd
000003c0: 06f8 64be 77f7 27bd e7fe 3cbe aac4 77be
000003d0: 79c4 1dbf 2fe6 d0be 5961 7cbe 4554 90bd
000003e0: 89fb 9fbe fca1 4dbe d81b 5abe 4e9c ecbe
000003f0: 505c b3be 5cf2 01be 3550 75be 4797 02be
-0.023439815 0.03616053 0.11623721 0.011740033 -0.19345695 -0.033342768 -0.05622495 -0.30333027
-0.14038292 -0.2368609 0.15412247 0.019320725 -0.08750241 0.12446495 -0.14882441 0.19306318
0.033736665 -0.14041734 0.04598889 -0.054191656 0.23706685 0.087993376 0.8939747 -0.15735584
-0.04507553 0.05105663 0.33065206 0.008235983 0.39175132 0.10983045 -0.023429217 0.14732422
0.035280704 0.041171093 0.035425935 -0.026377523 -0.12123192 -0.062958896 0.21779451 -0.12776521
-0.13754062 -0.039215095 0.010648413 -0.23585191 -0.0834434 -0.008892903 0.10841464 0.019468835
0.2969493 -0.029494649 -0.08695362 -0.010995536 -0.15186864 0.27799684 0.100596935 -0.010774294
-0.08932969 0.08456574 -0.045147914 0.20449057 0.044784922 -0.027583081 -0.031440422 0.14715928
-0.18314268 0.26385424 0.037144795 -0.07073946 -0.06892339 -0.11860796 -0.049691085 0.035668932
-0.0048954682 0.019149266 -0.14105776 -0.01628229 -0.10525304 -0.11960848 0.037420426 -0.06407077
0.022373406 0.15152216 0.35451746 -0.03091293 0.05492763 -0.068836905 -0.037990447 0.22933334
0.035226632 0.12340441 -0.001888638 -0.13175619 0.022020895 0.07718794 0.021210378 0.03767247
-0.13480453 0.1537636 -0.15684691 -0.073308066 0.17718829 0.07118539 0.008791488 -0.032643113
-0.1328979 -0.014190347 0.52562237 -0.10645212 0.35429513 0.042031366 0.07402271 0.040337317
-0.09224552 -0.123073 -0.05906914 -0.06369507 0.025422689 -0.10161951 0.028501134 0.040300205
-0.10896523 -0.11678891 -0.016233217 0.23159988 -0.06796342 0.3633487 0.025949674 0.028200042
-0.115101136 -0.30202731 -0.4437784 -0.07491242 -0.24589682 -0.09427551 -0.30924356 -0.030969532
-0.046610232 -0.2954522 -0.060103618 0.26412532 -0.16772349 -0.1346574 -0.14898409 0.01138799
-0.27607888 0.040747978 -0.013253096 0.08987465 0.06789921 0.08619526 -0.77312714 -0.23847885
0.011649229 -0.25315678 -0.28090605 -0.18922082 -0.15649891 -0.23573078 -0.34286097 -0.14960957
0.05189673 -0.23963723 0.1669414 -0.010000994 0.07475404 -0.23604402 0.053703327 -0.18415704
-0.21584176 -0.070025034 0.22712699 -0.10251126 -0.07144811 -0.0922709 0.06012225 -0.23246093
-0.55297744 -0.10693535 -0.3504631 -0.34087917 -0.15181866 -0.2690437 -0.20314983 -0.01764885
-0.18056792 -0.21878739 -0.22045274 -0.124413334 -0.10595129 -0.13200524 0.026607573 -0.12904164
-0.06920148 0.059158836 0.12187038 -0.08695596 -0.1996282 -0.28385657 -0.14839931 0.17260776
0.017892582 -0.047100563 0.008825599 -0.34348288 -0.1716816 -0.06084763 -0.50841963 -0.36848775
-0.20845196 0.13451996 -0.1335205 -0.22623757 -0.23836796 -0.082476266 -0.25318724 -0.09974039
-0.266049 0.056427017 -0.36730748 -0.067575574 0.10238187 -0.29383978 -0.33825058 0.04066145
-0.40215185 0.011483666 -0.112278186 -0.4609798 -0.21543849 -0.100984514 -0.119260095 -0.115886524
-0.13414995 0.21953604 -0.30284965 -0.39057368 -0.30731088 -0.05361482 -0.10944644 -0.048322037
-0.22360238 -0.041007485 -0.18456613 -0.24196115 -0.6162792 -0.40800616 -0.2464651 -0.07047323
-0.31246594 -0.20081323 -0.21299684 -0.46213 -0.35031366 -0.12690109 -0.23956378 -0.1275302

gru.bias_hh_l0 f4 [384]
00000000: cd1f d4bd 52af c73b 3013 193e bd40 963c
00000010: 9741 95bd 55a7 f0bd dffc 34be 2b4a 4bbe
00000020: 3cd8 c1bd b626 12be 797c ee3d 3ec2 553d
00000030: 511b 24bd 9e8b b63d 910d 88bd 99bc aa3d
00000040: 9eb4 7ebc 0ac0 70be d99f 9ebd 4f5a 87bd
00000050: a140 443e d972 1f3e a1f2 4e3f 1244 0dbe
00000060: 1814 92bd 292d ef3b ac05 d73e 0d61 a53d
00000070: 2b94 ed3e 03a7 e038 846c 913d ef74 db3d
00000080: 389b 8d3d 95eb 603c 732d c23d 6140 e3bc
00000090: a4fc 4ebe 4d66 723d fad0 3f3e bcec 32be
000000a0: 592f c0bd fd24 b63b b87e 9f3d d8a8 54be
000000b0: e66f f2bd 097c c5bc faae 283e edcb 37bd
000000c0: 92a8 733e 1eee e03d 5685 14bd 8f62 3e3d
000000d0: 303a fbbc 8795 403e bed9 533c 720a 0c3e
000000e0: 6414 bfbd b408 253e 2eda 02be fef2 373e
000000f0: ceea 0e3e 8011 91bb afd7 7f3d 2a8e 0f3e
00000100: 86fd c1bd a5dc a93e 6083 8a3d 9897 22be
00000110: 22eb 0abe 9f38 efbd 7087 3bbe a78a 8cbc
00000120: de0a 0c3d 7665 d73d ee93 22be 7faf eb3d
00000130: f1fa 063d 851c 17be 67bc ac3d 3393 dcbd
00000140: ebb4 79bd 0e8c 5b3e 247b a43e 988a d6bd
00000150: cc8f bdbc 698b c0b8 6b28 8abd f8b6 003e
00000160: 79a9 56bd 08bc fe3d 3385 d83d a2fa 00be
00000170: b7fd 5e3b 2095 e4bb 62e1 92bd c421 06bb
00000180: b081 debd 7fe2 163e 971a 4abc b9fb 53be
00000190: 03c4 fe3d 80cf c13d e037 0bbe 7d8f 90bb
000001a0: c394 18be cb16 ddbd b224 233f 02fd 4ebd
000001b0: 226a ab3e 01dd d63d 89f3 613d 784b a53c
000001c0: 2580 8c3c 39ec 5dbe 18e6 15bd 44e6 273d
000001d0: a906 73bc 289c 65be cb32 943d 1d1f 633c
000001e0: 5ef9 a3bd 16a3 e7bd 4175 edbd 48bb 7b3e
000001f0: 7220 27bd 2bce 043f bdb2 f13c c405 8d3d
00000200: 096c 9bbd 0bcf c5be 6c80 c7be c1df c2bd
00000210: a520 b9be 1981 55bd 4e42 87be 5c94 0fbe
00000220: b031 eabd b816 6abe 6b74 21be 1ced 913e
00000230: f9e6 18be 2884 8cbd b0ca 61be 4f74 6d3c
00000240: 2af7 b0be 7cb9 e63c 0011 d53d 7fea 4d3d
00000250: ba96 83bb cd26 033e 55e5 52bf 69d6 c8bd
00000260: a0d9 34bd 1bae 51be 5b27 97be c6de 7ebe
00000270: 6e7e 00be 89a1 25be b9aa 93be de8f cebd
00000280: aee4 93bc 4eb6 54be cc12 0f3e f140 013d
00000290: 3135 923c 7ede 33be 7219 c9bb 9190 98be
000002a0: 0d6f 3ebe 2ca6 04bd 107c 483e acfd 5bbe
000002b0: 49ca ba3d 16e7 53be 92ef e53d a08b 97be
000002c0: bb8e d8be f85e e4bd d62b 6ebe e7d7 89be
000002d0: e2c5 30be dffb acbe c2d9 94be 71c1 6bbd
000002e0: 2b17 88be 8d57 58be c137 6bbe cc8b 33be
000002f0: 6a18 42be 828d 70be c348 9d3d 5c7e 92be
00000300: 2fc6 02be 296d 5bbd b36a 423d f333 b7bd
00000310: 8892 61be 98b6 9dbe 9f52 65be 1be1 613e
00000320: a19a 0e3e 5fe7 22bd 5799 0ebe 9f6d 86be
00000330: 87d8 a0be 5671 16be 6f54 14bf b520 90be
00000340: 95e8 a9be a15a e73d 03dc dabd b0c3 7dbe
00000350: 09fe 58be cd74 95bd 15fc 64be 55e3 bebd
00000360: 6596 8abe c17b a2bd 2481 c4be fa96 8fbd
00000370: 5d54 0cbd e7c8 babe a85a aabe d024 893d
00000380: 0b55 96be 6ff5 c83c c1f6 3bbe b1e0 02bf
00000390: bfe4 a7be be17 7bbd c39e b2bd b5fe 213c
000003a0: 665d e0bc 4adf 773d 868e 82be 886d a4be
000003b0: b40b c2be 612f 5cbe 8ad6 203c a583 b0bd
000003c0: 18e8 62be 47ec 20bd b554 31be 68f7 2bbe
000003d0: cfec 0fbf 67ff e0be b1fd 27be 1631 afbd
000003e0: 71e1 a1be 6a47 60be d6ea 53be 9896 f6be
000003f0: 958c 5cbe 8d27 83be 00b9 8cbe 8ea0 1dbe
-0.10357628 0.006093898 0.14948726 0.018341416 -0.07287901 -0.11750666 -0.17674588 -0.19852512
-0.094650716 -0.1427258 0.11644835 0.052187197 -0.040065113 0.089133486 -0.066432126 0.083367534
-0.015545992 -0.23510757 -0.07745332 -0.06609022 0.19165279 0.15571155 0.8083897 -0.13795498
-0.07132739 0.0072990847 0.41996515 0.080751516 0.46402106 0.00010712261 0.07100776 0.10715663
0.06914371 0.013728042 0.09481325 -0.02774066 -0.20213562 0.059179593 0.18732062 -0.1747312
-0.09384031 0.0055586086 0.077878416 -0.20767534 -0.11837749 -0.024106996 0.16472998 -0.044872213
0.23794773 0.10982917 -0.03625997 0.04648071 -0.030667394 0.1880704 0.012930332 0.1367586
-0.09330061 0.16116601 -0.12778541 0.17963788 0.13956758 -0.004427135 0.06246155 0.14019075
-0.09472184 0.3317615 0.06763339 -0.15878141 -0.13566259 -0.116807215 -0.18313384 -0.017155958
0.03419005 0.10517399 -0.15876743 0.115080826 0.03295416 -0.14756973 0.084343724 -0.107702635
-0.060963552 0.21440145 0.321252 -0.104756534 -0.023139857 -9.1812406e-05 -0.0674599 0.12569797
-0.052407715 0.12438208 0.10572281 -0.12595609 0.0034025738 -0.006975785 -0.071718946 -0.0020466903
-0.1086458 0.14734839 -0.012335441 -0.20701493 0.1243973 0.094634056 -0.13595533 -0.0044116364
-0.14900498 -0.10795363 0.6372787 -0.050534256 0.3347941 0.10491372 0.055163894 0.020177588
0.017150948 -0.21672143 -0.036596388 0.040991083 -0.014833131 -0.2242285 0.072362505 0.013862398
-0.080065474 -0.11310403 -0.1159463 0.24583161 -0.040802427 0.5187709 0.029504174 0.06885865
-0.075889654 -0.38634524 -0.38965166 -0.09515334 -0.36157718 -0.05212507 -0.26417774 -0.14021438
-0.114352584 -0.22860229 -0.15767066 0.28501213 -0.14931859 -0.06861144 -0.22049975 0.014493062
-0.3456357 0.028164618 0.10403633 0.05027246 -0.0040157707 0.1280777 -0.8238118 -0.098065205
-0.044152856 -0.20476572 -0.29522213 -0.24889669 -0.12548229 -0.16174902 -0.2884119 -0.10086034
-0.018053379 -0.20772669 0.13972014 0.031556074 0.01784763 -0.17565343 -0.0061370665 -0.29797795
-0.1859705 -0.032385036 0.19578576 -0.21483487 0.09120614 -0.20693621 0.11227335 -0.29598713
-0.42296395 -0.11150926 -0.2325891 -0.26922533 -0.17262986 -0.33785912 -0.29072386 -0.057557527
-0.26580176 -0.21127148 -0.22970487 -0.17533797 -0.18954626 -0.23491481 0.07679894 -0.2861203
-0.12770914 -0.0535709 0.047465038 -0.089454554 -0.22028553 -0.3080337 -0.22394799 0.22058527
0.13926174 -0.039771434 -0.13925682 -0.2625551 -0.31415197 -0.14691672 -0.57941335 -0.28149953
-0.33185259 0.11296583 -0.10686495 -0.2478168 -0.21190657 -0.072976686 -0.22361787 -0.09320704
-0.27067867 -0.079337604 -0.38379776 -0.07011218 -0.034260143 -0.364814 -0.3327229 0.066964746
-0.29361758 0.024531094 -0.18355848 -0.511241 -0.32791707 -0.06130194 -0.08721688 0.009887387
-0.027388286 0.06051568 -0.25499362 -0.32114816 -0.37899554 -0.21502449 0.009816775 -0.08618859
-0.22158849 -0.03928783 -0.1731747 -0.16793597 -0.56220716 -0.43944857 -0.1640537 -0.08554284
-0.3161731 -0.21902242 -0.20695052 -0.4816177 -0.21538003 -0.25616112 -0.27484894 -0.15393278

attn.conv_Q.weight f4 [128, 128, 1]
00000000: 620d 99bd 84fb b3ba 6c14 eabb d696 643d
00000010: afe1 0cbc 65af 8ebd 34cb 653c f245 cf3d
00000020: 4f78 e33e 227d f0bd 1b9e 24be 29e7 ea3d
00000030: b3b2 b53c 3f71 44be b753 433c db24 31be
00000040: bade 9b3d e9f0 6ebd 93df 8d3e c827 583d
00000050: e76a d3bc fb18 1fbe 4a26 85be a6eb d43d
00000060: 05da d0bc 32ea a83d 5fb1 423e f52b fbbd
00000070: 246f 003e dde9 55bd b5cd 0cbe f669 903d
00000080: 9c8a 35bd a69d b1bd 3c0f 603d a0e8 3cbc
00000090: 9ac0 3a3d 407d f1ba a5ef 7b3d 2035 eabd
000000a0: c88e aebd bbee b53c 5489 133e 4a1d a73d
000000b0: 8520 e1bd 1942 b4bd cfb8 69bd e6d6 2b3e
000000c0: 0068 83bd 6929 453c 2c41 39bd 0631 75bd
000000d0: 97cb 583c 45e5 6fbe 6f77 093d 5413 6fbd
000000e0: 3808 a2bd 92c9 a1bd 8974 b5bd a829 03bc
000000f0: af9d ccbd c924 dc3d 057c 5ebb 027f 593d
00000100: f833 443e 7d43 ddbd 7bc0 b4bd c285 2fbd
00000110: 2709 093e f4ec ffbc 7340 3e3d 89fa eebd
00000120: 3dbe e53d 34d4 16bd a225 c8bd 7740 0a3e
00000130: aaba 81bc d70d 983d c1f3 d53d 9d9f 1ebd
00000140: db4b 763d a9f7 39bd 6712 b1bd cec1 b33c
00000150: fd21 3a3d f473 46be b15a 90bd a515 fe3d
00000160: 1228 063d f5f6 00be 85c0 18bd cb6d 91bc
00000170: dacf febd 2f34 2ebc ea35 3cbc 4eaa 4abd
00000180: 3978 5f3d 9e2e 09bd d6f5 59bd 491c 543e
00000190: 0792 223e d80e f93c a179 d33d 993a 4cbd
000001a0: f5a3 91bd e251 4abd a1b5 263d 1d07 773d
000001b0: 29b2 9bbd c64b 403d 44b7 a0bd 9a2d dcbd
000001c0: e794 0abb 1fdb babc 38e9 89bd 9db5 1b3b
000001d0: 4eed e63d b1e8 bd3c 74ed 09be 7239 313e
000001e0: 8f2a 73be 0d43 97bd fb11 8a3d 4b95 b8bd
000001f0: 9bb6 01be 3a2e 5d3b 4ade 3cbd 2399 693d
00000200: 74f3 09bd 7549 21be 74f0 74bd 0765 25bd
00000210: d71d ec3b 0ae5 a8bc 7c3f 00be 8804 e7bd
00000220: 079d 0fbd 9c43 d5bb 9a76 34bd 1acf 33bc
00000230: c36d 04bd 2183 03bd b61c ab3c 04bd 44bd
00000240: 3119 e13c 8445 ae3d 3920 1d3c 7775 473d
00000250: d805 15be 0a42 803d 4257 213e ff74 31bd
00000260: d1d7 bb3d f296 16bd 6062 ba3d 8834 b0bd
00000270: a7db 98bd 06fd b7bd 060e 053d 3f2f 6ebd
00000280: c391 c4bd be37 0d3d fc29 9ebd d406 7fbd
00000290: c516 83bd 97a6 bfbd 23f4 87bd 4b5c 433d
000002a0: 2470 87bd 447b 67bb 6921 e63d 89ac b73c
000002b0: f91d d63d 2cdf 233d 77a4 e83d bd28 483d
000002c0: 44d5 0c3e a4fa cebd c359 88bd 61c9 823d
000002d0: 43e2 5f3d 274c 713d c1d9 b5bc 2258 8ebd
000002e0: c802 4d3c 51c4 ae3b a3e8 80bc 1cb8 7c3d
000002f0: 5904 0d3e 8a1a b03c 4610 54bd dc9e 4ebe
00000300: 8316 923d 9632 5c3d 298b 66bd 14ee 19bd
00000310: f1f2 183d 2d9e 77bd e0b4 cd3d 1a18 cabb
00000320: 1c27 db3d 4ace 9cbd 08a7 623c 0193 92bd
00000330: c16e ac3b bd41 fa3c 3292 7e3c 06eb 583d
00000340: 59f9 ba3b 5303 29bd 620a 19be faf3 57bd
00000350: 5e2a 7ebc 02ea 67bd 6ca9 5dbc de15 fc3b
00000360: a1fc ac3d 3953 863d be08 84bd 4222 fa3c
00000370: 71b5 7e3d 3d25 81bd c314 aabd 88d0 20bd
00000380: 4fac ccbd ca46 64bd c4ac e4bb be8a ee3b
00000390: 6f56 933d a1ce ca3c fd40 c43b 7abb 57bd
000003a0: 0672 463d d026 13bd 667b d8bd e84b 043e
000003b0: 8537 d23d 6601 4939 aad5 e2bc a20e 093e
000003c0: 961c 3339 f459 7ebd a314 643c 9bd6 5b3d
000003d0: e27c 0ebe ed22 d23d c951 79bd 7e39 d53a
000003e0: b104 b73c 3f30 44bb a6e5 2bbc eaee 98bd
000003f0: d11e eb3d 4ef7 27bd 1f46 973c fc60 e53b
-0.07473256 -0.0013731574 -0.0071435478 0.05580791 -0.008598729 -0.069670476 0.014025498 0.10120763
0.44427726 -0.11742617 -0.16075937 0.114698716 0.022179937 -0.19183825 0.011921815 -0.17299215
0.07610841 -0.05833522 0.27709636 0.052772313 -0.025807811 -0.15536873 -0.26005775 0.10396509
-0.025494585 0.08247794 0.19012974 -0.122642435 0.12542397 -0.052224983 -0.13750346 0.070514604
-0.04432164 -0.08672647 0.05470203 -0.0115300715 0.045593835 -0.0018424168 0.06150784 -0.11435914
-0.08523327 0.022208562 0.14407855 0.08159883 -0.10992531 -0.088016696 -0.057061013 0.16781196
-0.06416321 0.012033799 -0.04522817 -0.059861206 0.013232133 -0.23427303 0.033561166 -0.058368042
-0.07911724 -0.078997746 -0.08860118 -0.008005537 -0.09991013 0.10749204 -0.0033948433 0.05309964
0.1916045 -0.10803888 -0.08825775 -0.04285217 0.13382398 -0.031240918 0.046448182 -0.116688795
0.11217926 -0.036823466 -0.09772803 0.13501154 -0.015836079 0.07424515 0.10446883 -0.038726438
0.060130935 -0.045402203 -0.08646088 0.021943 0.04544257 -0.1938017 -0.07048548 0.12406472
0.032753058 -0.12594207 -0.037292976 -0.017752549 -0.12441988 -0.010632559 -0.0114874635 -0.04947882
0.054558013 -0.033491723 -0.053212963 0.20713915 0.15876018 0.030402586 0.10325933 -0.04986057
-0.071113504 -0.049394496 0.04070056 0.060309518 -0.07602341 0.046947263 -0.07847455 -0.10750885
-0.0021145882 -0.022809563 -0.06733936 0.0023759373 0.11275731 0.023182245 -0.13469487 0.1730707
-0.23746704 -0.07385836 0.06741711 -0.090128504 -0.12667315 0.0033749477 -0.04611043 0.05703081
-0.03367944 -0.15750678 -0.059799626 -0.04037955 0.0072057056 -0.020617027 -0.12524217 -0.11280161
-0.035061862 -0.006508304 -0.04405842 -0.01097467 -0.03233124 -0.032107476 0.020887714 -0.04803182
0.027477833 0.08509353 0.009590202 0.048696008 -0.1455301 0.06262596 0.15755942 -0.043324467
0.09172023 -0.036765046 0.09100795 -0.086037695 -0.0746377 -0.08983807 0.032484077 -0.058150526
-0.09598114 0.034476988 -0.07722852 -0.06226237 -0.06400827 -0.09357946 -0.06638362 0.04769544
-0.06613186 -0.0035321275 0.11236841 0.022421138 0.104549356 0.040007755 0.11359494 0.048866976
0.1375323 -0.101064 -0.06657746 0.06386066 0.05465914 0.058910515 -0.02219856 -0.06950404
0.01251287 0.0053334613 -0.01573593 0.061699018 0.1377119 0.02149703 -0.051773332 -0.20177788
0.071332 0.05375918 -0.056285057 -0.037580565 0.037341062 -0.060453583 0.10044265 -0.006167424
0.10700819 -0.07656534 0.013833769 -0.07156945 0.0052622263 0.030548925 0.015537785 0.05295851
0.005705994 -0.041262936 -0.14945367 -0.05272291 -0.015513031 -0.05661965 -0.013529163 0.0076930365
0.08446623 0.06558842 -0.0644698 0.030533914 0.062184755 -0.06305931 -0.08304741 -0.03926137
-0.09993803 -0.055731572 -0.006978603 0.007279723 0.0719422 0.024756731 0.0059891925 -0.052669026
0.048448585 -0.035925686 -0.105704114 0.12919581 0.10264496 0.00019169375 -0.027689774 0.13384488
0.0001708142 -0.062097505 0.013920936 0.05367146 -0.13914827 0.10260568 -0.060869012 0.0016267744
0.022341104 -0.0029935983 -0.010491764 -0.07467444 0.11480487 -0.041007333 0.018466054 0.007000087

attn.conv_K.weight f4 [128, 128, 1]
00000000: 0ac1 803c 04df 39bd 99d6 173e e5d8 aa3b
00000010: edd1 833c a144 4abd baec cd3d 4df0 1b3d
00000020: c2b0 7abd fd9f 57bd e6b3 2abe 11da 83bd
00000030: b4e1 bdbe 4008 00be 7cdd d3be 65a7 26bd
00000040: 572c 203c 1428 ffba eaaf 3c3d ecc4 cc3b
00000050: 3033 a93d 8ef4 8f3d 2e80 75be 9ebd 153d
00000060: b820 e73d ceb2 313e c924 e63d 2d7d 44be
00000070: 8cba 27bc 284c 80bd 6153 02be 6edf 993d
00000080: fd0b 7dbd 7057 273d 5063 6b3d c0cc 1dbd
00000090: c17b 1ebe 7e95 86be d305 533d 2b08 1dbe
000000a0: 25ad 113d c054 dcbd c777 ad3d 9a5e e43e
000000b0: 7942 b03b c769 9cbd c2c7 503c c259 243d
000000c0: 4976 4b3e e5c7 083d 4f6b cabd dc77 cabc
000000d0: f686 a83e 6532 3abe a3a0 923d 472a 0ebe
000000e0: d3c8 263e 2375 1cbc e6b9 cfbe d732 4fbe
000000f0: 8114 063d 89bf d83c db65 fd3c 53d9 203d
00000100: b5e7 4b3d 9378 c4bd d00b 9dbd 6085 c43e
00000110: a5cf 173d 38c3 193e 2ad7 d23e b27a 26bd
00000120: 54bf 6d3c b228 a839 a2ef 76bb bc0b d13c
00000130: d4af 033e 6df1 833d 8a73 0a3e bfff dabd
00000140: aba4 893d c043 b53c 160d c33d 964a 6cbd
00000150: c29a df3d 2271 aa3c efa6 07bd 62e6 b03d
00000160: 5ea0 8f3d 4f3f 903b 85fb 51be 0d48 01be
00000170: b07c e23d 688e bcbd 3dc0 763e 99c9 c6bd
00000180: e07d 3e3c f866 6a3d 3301 afbe 7225 f73c
00000190: b9d5 023f 9b65 30bd 75a2 3f3e 740f e33d
000001a0: accb 93be 9a46 bc3c d93b 92bd 5bf3 b93d
000001b0: e32b bcbd f689 2a3d 241a 073d a551 313d
000001c0: 3938 ac3c d207 c8bd cd33 f53e 0f2d 973d
000001d0: 2d16 43bd 024f 48bc 73a0 6abe 4b7b 1cbc
000001e0: 466d 8dbe f147 9f3d da16 3fbe e761 81bc
000001f0: e273 8ebd 2296 b1bc 1ea6 7f3d 616a fb3d
00000200: d7a7 cc3b 0a18 be3d 02e2 dcbd 83d2 d33c
00000210: 3314 59be 6472 b53c ec8b 333d d443 43bd
00000220: 52fb 95bd d2f2 c9bc dfa4 c6bd a1f0 4d3d
00000230: 0806 b73c 22bf a63d c35e ed3d 6712 2d3d
00000240: a2b2 773d 6f0f fcbc 65ff 663d d32b 75bc
00000250: b7fe 0a3d 09d3 2c3d 7dd4 4b3e a7b3 67bd
00000260: e41e 0cba b5bf 393d 2664 9ebc 4863 fa3d
00000270: e84c 6dbc 04fa 043e cb98 83bc 9bca 7dbd
00000280: 0757 93bd 5f2a 2e3d b12c a03d 3551 2db9
00000290: 9866 a7be 5f10 15be cb27 3fbd f508 ebbc
000002a0: 6707 cbbc ab21 2d3e 32e3 10bd dc8c 23bd
000002b0: 5b0a acbc 5248 0a3d cadf 753d 3c3c 663b
000002c0: 624b 99be 446d 973d 1085 15be df79 f83d
000002d0: 7f5c b23e e6a2 cbbd 5a30 10be 0656 913d
000002e0: cb23 113e 2bde 75bd 84e6 fdbc 33bd efbc
000002f0: 05e2 383c 8011 1ebc 2536 863d 8373 bf3c
00000300: 7451 7d3d a809 cf3d 6fff 033c 07b6 623d
00000310: a11d 06be 250d 23be a1c2 febd b89b a53d
00000320: d133 3e3d db93 4abc 2c58 813c e77e ffbd
00000330: 755e 1cbc 1bef a33a 0f4b 513e 3f8d f23c
00000340: d863 553d f310 a5bc f683 a43b b3d1 f6bd
00000350: 083e 95bd 3a2f e1bd 03e1 a13d 54a2 8ebc
00000360: 736c a13c 3794 2ebc f7d7 9abd 4556 57bd
00000370: ee69 9a3d 1cff 573d 00ea 73bc d72f 5a3d
00000380: 5516 87bd 88ed febd 5a84 77bd 02db 2e3d
00000390: 402e 1d3f 603f d9bd 71c9 8a3e 8f44 283e
000003a0: 1357 a7be 614b 8fbd 7473 71bf de3a 5cba
000003b0: 4068 4c3e 9a7d 8b3d 3408 efbc 5272 843a
000003c0: 1cd0 75bd 47b7 363d 351c 14be 216b efbd
000003d0: 22cc e93c 8a7f 11bd 0497 573d 24ee af3d
000003e0: 10af c33d 4fbe c53b 0ddc 89bd f268 32be
000003f0: 1148 f0bd bd02 c7bd bb57 50be 71a2 6ebd
0.015717048 -0.0453787 0.14827956 0.005213844 0.016091311 -0.049381856 0.10054918 0.038070966
-0.061203726 -0.05264281 -0.16670188 -0.06438077 -0.3708626 -0.12503147 -0.41379917 -0.040686984
0.009776196 -0.00194669 0.046066202 0.006249061 0.08261716 0.07029067 -0.23974678 0.036557786
0.112855375 0.17353365 0.11237485 -0.19188376 -0.010237347 -0.06264526 -0.12727119 0.07513319
-0.06177901 0.04085487 0.05746776 -0.038525343 -0.15476896 -0.26285928 0.051519226 -0.15335147
0.035565514 -0.10758352 0.08470111 0.44603425 0.005379018 -0.07637363 0.0127429385 0.040124662
0.19869341 0.03339376 -0.09883749 -0.024715357 0.32915467 -0.18183286 0.07159545 -0.13883315
0.16287546 -0.009549412 -0.40571517 -0.20234238 0.032734398 0.026458519 0.030932358 0.039269757
0.04978152 -0.0959331 -0.07668269 0.38383007 0.03706326 0.15015876 0.41179782 -0.040644355
0.014510948 0.00032073777 -0.0037679453 0.02551829 0.12860042 0.06442533 0.13520637 -0.10693311
0.06720861 0.022127032 0.0952398 -0.05768832 0.109181896 0.020805899 -0.033118185 0.08637692
0.070130095 0.004402078 -0.20506103 -0.12625141 0.110589385 -0.09206849 0.2409677 -0.097064205
0.011626691 0.057227105 -0.34180602 0.030169223 0.51107365 -0.04306565 0.18714316 0.11086932
-0.28866327 0.022982884 -0.07140321 0.090796195 -0.09188058 0.041635476 0.032983914 0.043290753
0.021022903 -0.097671166 0.47891083 0.07381641 -0.04762857 -0.012225868 -0.22912769 -0.00955088
-0.27622432 0.077773936 -0.18661061 -0.015793754 -0.06955697 -0.021678034 0.06241428 0.122761495
0.006245594 0.09281929 -0.10785295 0.025857216 -0.21199112 0.022149272 0.04383461 -0.047672108
-0.07323326 -0.024651919 -0.096994154 0.05027831 0.022341743 0.081419244 0.1159034 0.042253878
0.060473092 -0.030769078 0.056395907 -0.014964062 0.03393432 0.042193446 0.19905277 -0.056567814
-0.0005345179 0.04534884 -0.019334864 0.12225968 -0.014483668 0.12985998 -0.016064068 -0.061960798
-0.071943335 0.042520877 0.07821024 -0.00016528818 -0.3269546 -0.14557026 -0.04666881 -0.028690794
-0.024783803 0.16907375 -0.03537292 -0.039929256 -0.021001032 0.033760376 0.060027875 0.0035131117
-0.29940325 0.07393888 -0.1460154 0.1213262 0.34836194 -0.0994318 -0.14080945 0.07096486
0.1417381 -0.06002633 -0.030993707 -0.029265022 0.011284356 -0.009647727 0.06553296 0.02337051
0.061845258 0.10109264 0.008056506 0.055349376 -0.1309724 -0.15922983 -0.12439466 0.080863416
0.046436135 -0.012364353 0.015789114 -0.124753766 -0.009544005 0.0012507172 0.20438789 0.029608367
0.05209717 -0.020149684 0.005020614 -0.12051716 -0.07287222 -0.10995336 0.07904246 -0.017411388
0.019705033 -0.010655454 -0.07560723 -0.052572507 0.07539736 0.052733526 -0.014887333 0.05326828
-0.06596056 -0.12447649 -0.060428955 0.04268933 0.61398697 -0.10607791 0.27106813 0.16432403
-0.3268362 -0.06996799 -0.9431679 -0.0008401106 0.19961643 0.06811066 -0.029178716 0.0010104871
-0.06001292 0.04460838 -0.14463885 -0.11690355 0.02853972 -0.03552202 0.052634254 0.085903436
0.09554875 0.0060346494 -0.067314245 -0.17422846 -0.117324956 -0.09717319 -0.20345967 -0.058260385

attn.conv_V.weight f4 [128, 128, 1]
00000000: 3545 bcbd 3ba3 173e 4740 793e d815 efbe
00000010: 8f9d 48be f1fb cc3d d2a7 63be 8bf5 bf3c
00000020: 337f 58be 29b9 943d f37e 29be 2e39 b0bd
00000030: 194a d53d fbe1 66bd 19a0 013e 95e0 ba3d
00000040: 7f99 723e 2d86 46be 051d bfbe deff febc
00000050: dab9 7e3d f8ce e83c 5750 06bf 1891 23be
00000060: 3edc 00be 23e3 3c3e f994 cb3e 7a4a db3c
00000070: 18dd 823e f47c 853d c2ca d9be f9cd c2be
00000080: 625f 853d 588b 9fbe 3d53 41be 857b a3bd
00000090: f86a 263d 2a73 703e 123c 2abe 701a a0bd
000000a0: ef11 313e addd d4bc f3f4 07be c464 32be
000000b0: ab74 053e 6328 e53d fda9 de3d c9cf 513e
000000c0: f2bc 393d 5447 a0bd f3b8 713e 88a4 81be
000000d0: e5a3 0abd a078 43be d2fe c1bc 1803 323d
000000e0: aea0 24bd a012 babd fdd4 babc 4ac4 543e
000000f0: 6d64 eabd ec68 013d afe1 1dbd b526 543d
00000100: 315e a3bc 49c0 b9be 29b9 2b3e b721 6ebe
00000110: 0abf 6e3d 6409 cb3b 5840 bdbd 3b06 e7bd
00000120: bb48 dd3d 239f 12bd e106 0a3e b2e1 b73e
00000130: 6bae 37be dccd 48bc 6e7b 8f3d a7c5 1d3e
00000140: 0b29 3dbe 1b1a 0d3e 6073 963e c81d a03e
00000150: 2e95 d33e 817c 053d 529f b23d 4b08 973e
00000160: 3f61 ec3e 08c7 a2be 4c78 b3bd 7621 c3bd
00000170: fac1 78bd 13de 113f 9b17 e7bc 8cbb c33d
00000180: 87ed 12bd 5fc2 d03d 236e 323e 5e31 6f3e
00000190: 58d6 77be 902e 23be 2071 873d 05e9 ba3d
000001a0: 185b 313c 5f49 113c 0bbd 8bbd a2de 2cbe
000001b0: 8723 11be bd5d f5be abc4 da3c e526 6cbe
000001c0: fc16 0f3e 0359 bbbb 80a7 efbd 1e0a 40bc
000001d0: 8c60 4d3d 3483 a0be 6f11 c73d 4ede cabd
000001e0: c70d edbd 4f2f 2dbe cfab 58bc 31a6 15be
000001f0: b6c9 abbd 1507 2c3e 2cf9 963e 5984 35bc
00000200: a99f 263e c3df d73d 3ab4 0abd 2237 a3bd
00000210: eb5f 5cbd c84c 21be f87e 493d 0799 b3bd
00000220: d785 b3bd 2a26 9dbd 7d93 22be 2828 b63c
00000230: d4ae 1b3e 60e1 9cbe 62b7 ce3d 52b0 8fbb
00000240: 7a45 3abe 71b9 8dbd 36c3 1ebe f738 2fbd
00000250: 4405 d0bc 24de 6cbd b48e a9bd a504 a7bd
00000260: 8e46 d4bc 1ba4 123e f97d 3d3e 9f9a edbd
00000270: 729d d63c fe24 523c 4af3 b93c 0bc1 fb3d
00000280: 5be4 1dbe b7f3 f93d a2b3 b23e 70eb 8b3e
00000290: 9e4e ecbc 627f 963e a49c aa3d 256e 92bd
000002a0: 6ef0 153e 3645 cc3d 2bcc 853e 3c36 c8bd
000002b0: cb82 cc3d 4682 30bd f005 f33d f803 173e
000002c0: 30a0 bb3d f135 93bd 7b69 83bc b52b 4bbc
000002d0: 538a 433e c9e8 05be 0f05 ae3c be85 5b3d
000002e0: 5263 7a3d f5f1 4a3c 02cc a53d b4c0 033e
000002f0: 3710 98bd 8fd8 223e 8fa6 b93d c781 263e
00000300: 173a 9b3e 8c0b 20be 3ab9 3b3d 371e 953b
00000310: 88b9 143e 3713 92bd 8d5a bdbc b9c2 d5bc
00000320: 242a 453e 9547 91bd 1d89 143e 0959 133e
00000330: 7b3d 0abd fa31 91bd ac58 71bd ee17 de3c
00000340: 4c79 f8bd 3fd1 06be b634 383d 2d90 cd3d
00000350: 5910 61be f6de 9a3d fd3f 15bd 44a5 e0bb
00000360: 15c1 a93d 823a cc3d 9f2d 39be 329d bfbd
00000370: 2fb2 6bbd 90ed f13c 24bd 6f3d bba6 523d
00000380: f9fa c7bb 38e9 c1bb a17f b13d d08c e03c
00000390: 520b a13c f210 22be 06bd d63d b92f 8c3c
000003a0: 7778 56be c052 24bd d809 e13e 6930 c0bd
000003b0: 1547 a23c 4bfb 4a3d 1c3d 8c3d 0244 c7bc
000003c0: 02db 533d add9 dcbd 8700 a6bd c57e c4bd
000003d0: a91a 33bd cebf d63a 1e85 07be 238c 6abd
000003e0: a7bd d2bc aba6 11bd e580 6bbd 775c 643e
000003f0: 0a4b 94bd b28e 0f3e 7388 2b3e 8613 2d3e
-0.09192888 0.14808361 0.24340926 -0.46696353 -0.19591354 0.100089915 -0.22231987 0.023432514
-0.21142273 0.07261879 -0.16552334 -0.08604656 0.10414524 -0.056367856 0.12658729 0.09124867
0.23691367 -0.19387121 -0.37326828 -0.031127866 0.06218896 0.028419003 -0.5246634 -0.15973318
-0.12584016 0.18446021 0.39762095 0.026768912 0.25559306 0.065179735 -0.42537504 -0.3804777
0.065123335 -0.31160998 -0.18879409 -0.07982544 0.040629357 0.23481432 -0.16624478 -0.078175426
0.17291997 -0.02598461 -0.13277034 -0.17421252 0.13032787 0.11189344 0.108722664 0.2048942
0.045346208 -0.07826105 0.23605709 -0.2532084 -0.03384771 -0.19088984 -0.023681078 0.04345998
-0.0401923 -0.09085584 -0.022806639 0.20778003 -0.11444936 0.031594202 -0.038545307 0.051794726
-0.019942375 -0.36279514 0.16769852 -0.23255049 0.058287658 0.006196188 -0.09240788 -0.11280485
0.10804888 -0.035796296 0.13479187 0.3591438 -0.17937629 -0.012256112 0.07005964 0.1540743
-0.18472688 0.1377949 0.293849 0.3127272 0.41324753 0.03258944 0.08721794 0.29498515
0.46167943 -0.31792474 -0.08763179 -0.095278665 -0.060731865 0.56979483 -0.028209498 0.09557256
-0.035871055 0.10193323 0.17424826 0.23358676 -0.2420286 -0.15935731 0.06613374 0.09126476
0.010824941 0.008867591 -0.068231665 -0.16881803 -0.14173709 -0.4792308 0.026705107 -0.23061712
0.13973612 -0.005717398 -0.1170187 -0.011721162 0.050140902 -0.313501 0.09720122 -0.099056825
-0.115748934 -0.16912578 -0.013224556 -0.14614178 -0.08388083 0.16799577 0.29486978 -0.011078917
0.16271843 0.10540726 -0.033863284 -0.079695 -0.053802412 -0.15751946 0.049193352 -0.08769422
-0.08765762 -0.07673295 -0.15876575 0.022235945 0.1520341 -0.30640697 0.10093571 -0.0043850327
-0.18190566 -0.06920136 -0.15504155 -0.042778935 -0.025393136 -0.057829037 -0.082791716 -0.08155183
-0.02591255 0.14320414 0.18505086 -0.11601757 0.026198123 0.012826202 0.022699017 0.122926794
-0.15419142 0.12204688 0.34902674 0.27328062 -0.028846081 0.2939406 0.08330658 -0.07149915
0.14642498 0.099741384 0.2613233 -0.097759694 0.09985884 -0.04309299 0.11866367 0.14747608
0.09161413 -0.07188023 -0.016041508 -0.012400557 0.19095735 -0.13077082 0.021242647 0.053594343
0.061129875 0.012386789 0.08095552 0.12866479 -0.07424968 0.15902923 0.09064972 0.16260444
0.30317757 -0.15629405 0.045830943 0.004550721 0.145239 -0.07132571 -0.023114467 -0.026093828
0.19254357 -0.07093731 0.1450543 0.14389433 -0.03375004 -0.070896104 -0.058922455 0.02711102
-0.121325105 -0.13165759 0.044972144 0.10037265 -0.21978892 0.07562058 -0.036437977 -0.0068556387
0.082887806 0.09972097 -0.1808381 -0.093561545 -0.057542976 0.029532224 0.058529988 0.051428538
-0.0061029163 -0.0059176944 0.086669214 0.027410895 0.019658718 -0.15826777 0.10485272 0.0171126
-0.20944391 -0.04011798 0.43952823 -0.093842335 0.019809285 0.049556058 0.06847593 -0.02432442
0.051722534 -0.10783706 -0.08105569 -0.09594492 -0.043726597 0.0016384067 -0.13234374 -0.05726255
-0.025725199 -0.035559338 -0.05749597 0.22300898 -0.07240875 0.14019278 0.1675127 0.16901979

fc1.weight f4 [2, 128]
00000000: 9326 7e3e 5151 5d3e 2108 263e 98df a83e
00000010: 4195 8c3e 358d 58be 518f 22be 0ea7 533e
00000020: d8be 5e3e 906d 953e d10f 9b3c 2121 1d3d
00000030: 8184 8fbe 975c 84bd 79b1 b23e a8f3 ab3e
00000040: e742 9cbe 5143 a1be f9f0 4f3d 403a e13e
00000050: 11bf af3e dcd0 4bbe b9e2 99bd bb13 2a3e
00000060: 8174 adba a642 293e 9143 983e 0604 683e
00000070: f772 573d 0c94 6fbe ce35 c1be 993c 8a3e
00000080: f180 6b3e a2a2 993e 13a0 893e 6b5c a03e
00000090: baa9 a2bd b585 bebe cd12 02bd 04fb 123e
000000a0: f771 6cbe 0fbb cebe 2888 a93e 1451 033e
000000b0: ab1c 843f 524a 73be 9d00 69be 2ab9 a43e
000000c0: 43fb 90be f8ee 5d3e abca 0dbf 5049 ac3e
000000d0: 722e 49be b975 91be 76e1 dfbe 5830 b83e
000000e0: fff5 693e b42b bdbe 291b 4dbe 935a 97be
000000f0: 0003 f3be e041 ed3e c619 84be 286f a33e
00000100: 9d42 48be f510 d43e 0959 843e 2a16 a0bc
00000110: 5f2b 9f3d e69d c6be 3092 b4bd 3d3c c8be
00000120: 1d66 613e ade0 8abd 8dff 873e 9f70 1ebe
00000130: 7a10 51bd 04b5 a2be 3ea4 bb3d 8743 78be
00000140: 4934 ee3d 3863 50be cf00 a03e ad5e 89be
00000150: b8cc 6fbe 3913 753d cd17 8a3e 1081 6f3e
00000160: c364 54be cf39 ad3e 1967 babe 48df 563e
00000170: 6a9c 873e aaae f83e d3f6 a6bd 291d 51be
00000180: f12f a2be 7659 9cbe 33cc 883e f37c 58be
00000190: 035f 8a3e 76fc 353e b22c 81bd 5c46 77be
000001a0: d83d 7b3e 1d13 3c3d c184 95be f489 ea3e
000001b0: 42e9 a43d 873d 8f3e ea42 1bbe b636 3d3e
000001c0: 6a87 a3be 8b2c ba3e 06e4 203e 5e77 67be
000001d0: e911 31bd 023f 60bd 1f6c 693e 4d30 863e
000001e0: e6da 9c3e 7f32 d5be 173f d2be cd0c b9bc
000001f0: 31f8 8ebe 1ca0 903e 3c41 883d 5ee8 963e
00000200: 711b 3e3d 3a54 b53e 3e2a ae3d 8677 603e
00000210: a7ad cdbe 44d0 a8be 1658 b4be a5c3 fdbe
00000220: 4b03 8bbe 92c5 afbe b3d9 06be d66c 8abe
00000230: b691 22be 418e b6bd 3c24 83be 44ea de3e
00000240: aa4e 53be 2916 e13c 05a7 cc3e a12f c2be
00000250: bd7d 5c3e 9e5d 2cbf 87d5 03bf d373 d13e
00000260: 420d c53e 6b4b f53e 0ba5 7a3e 7cd2 ca3e
00000270: 1d04 ab3d 46a9 96be 8911 40be 3e9d b53e
00000280: 3623 b73e 0c19 48be f6f5 743e 7eae b33e
00000290: d62c 9dbe 3ee3 7fbe 0cae 873e 96d4 813c
000002a0: 73a6 a2be c2d9 e0be 35ec 3cbe efef 913e
000002b0: d7ca 84bf 6be5 8cbe 8ecf 1abd 2ceb f5be
000002c0: 7a54 793e 2ee6 483d 32a3 053f 50fc 4d3e
000002d0: 597d 1c3f 8c76 30be 1cd5 22bc c8f6 6c3e
000002e0: 44d4 b93e 98da d0be 8111 023f 9090 7f3e
000002f0: db12 eb3e ce16 cebe 6e98 32be 3401 923e
00000300: 16b9 0e3e 7578 44be e9b8 4b3e 8078 00bf
00000310: 4160 c03d ce21 68be c535 cbbe e709 2ebe
00000320: 8a20 b0be dd1c c6be ff4a b33d 908c cebe
00000330: 9427 873d 957f 5dbe 9524 74be 8b2a 98be
00000340: f7e2 df3e 575a b0be 01bb 263d d2c6 88be
00000350: 2716 aebe b6f1 02bf e465 3e3e 9614 a53e
00000360: b7da b9be e908 8b3d 59f9 5abd 0b26 313d
00000370: 59ff c2be 44d8 673e c525 14bf 1948 3dbe
00000380: 0d5a 90be 986c 85be d49f 76bd 8f2d cebe
00000390: bbcd 9a3e 8ee4 a6be de33 08bf a5b1 6fbe
000003a0: 9156 673e 9cc6 593e 82be 4cbe eebc 9bbe
000003b0: 22df d7bd aa57 60bd 5df9 f43d ccf1 9a3d
000003c0: 305d 623e 3a58 17bf 247e 11bd e167 5dbe
000003d0: ae16 dcbe 16de 88be d4aa da3e 3b13 d23e
000003e0: f36a 94bd 1efa 49be aede c2be 9843 bfbe
000003f0: 6583 85be ace8 ae3c acc5 d43e 7923 513e
0.24819402 0.21613051 0.16214038 0.32983088 0.27457622 -0.21147616 -0.15874983 0.20669195
0.21752489 0.29185152 0.01892844 0.038361672 -0.2803078 -0.064629726 0.34901026 0.33584332
-0.30519792 -0.3149667 0.05076692 0.43989754 0.3432546 -0.19903892 -0.07513947 0.16609089
-0.0013233573 0.1652933 0.2973905 0.22657785 0.052599873 -0.23396319 -0.37736362 0.26999357
0.22998406 0.3000689 0.2687994 0.3132051 -0.07942529 -0.37211385 -0.03175621 0.14353567
-0.23090349 -0.4037709 0.3311169 0.12823898 1.0321249 -0.2375882 -0.2275414 0.3217252
-0.28316697 0.2167319 -0.5538737 0.33649683 -0.19646624 -0.28410128 -0.437267 0.35974383
0.22847746 -0.36947405 -0.20029892 -0.2956129 -0.47463226 0.4633932 -0.25800914 0.31920743
-0.19556661 0.41419187 0.25849178 -0.019541819 0.07771944 -0.38792342 -0.088169456 -0.39108458
0.2201161 -0.06781135 0.26562157 -0.15472649 -0.051041104 -0.3177873 0.09162186 -0.2424451
0.11631066 -0.20350349 0.31250617 -0.26830044 -0.23417938 0.059832785 0.26971284 0.23389077
-0.20741563 0.33833167 -0.36406782 0.20983613 0.26486522 0.48570758 -0.08152547 -0.2042128
-0.316772 -0.30537003 0.26718292 -0.21141414 0.27025613 0.17772087 -0.06307353 -0.24147934
0.2453531 0.045916665 -0.29202846 0.45808375 0.08052303 0.2797663 -0.15162244 0.18477902
-0.3193925 0.3636211 0.15711984 -0.22604129 -0.04322997 -0.05474759 0.22795151 0.26208726
0.30635756 -0.41640088 -0.4106376 -0.022589112 -0.2792373 0.28247154 0.066530675 0.29474157
0.04641289 0.35415822 0.08504151 0.21920595 -0.4017155 -0.32971394 -0.35223454 -0.49563327
-0.2715095 -0.34330422 -0.13168983 -0.2703616 -0.15875897 -0.089138515 -0.25613582 0.43538105
-0.20635477 0.027476387 0.39971176 -0.37926963 0.2153234 -0.6733035 -0.5149769 0.4090868
0.38486677 0.47909102 0.24477021 0.39613712 0.08350394 -0.2942602 -0.18756689 0.3547153
0.3576905 -0.19540805 0.23921952 0.35094064 -0.3069827 -0.2498903 0.26499975 0.01584844
-0.31767616 -0.43916136 -0.18449481 0.28503367 -1.0374402 -0.27518782 -0.037795596 -0.48030984
0.24348632 0.04904764 0.5220214 0.20115781 0.61128765 -0.17232722 -0.009938505 0.23141015
0.36294758 -0.40791774 0.5080796 0.2495749 0.45912823 -0.40251774 -0.1744096 0.28516543
0.13937792 -0.19186576 0.19894756 -0.5018387 0.09393359 -0.22669145 -0.3968946 -0.16995965
-0.34399825 -0.38693896 0.08754539 -0.40341616 0.06599346 -0.216307 -0.2384208 -0.29719958
0.43727848 -0.34443924 0.040705685 -0.26714188 -0.34001276 -0.5115007 0.18593556 0.32242268
-0.3629968 0.06788809 -0.053460453 0.04324917 -0.3808544 0.22641093 -0.5787013 -0.18484534
-0.28193703 -0.26059413 -0.060211018 -0.40269133 0.30235085 -0.32596248 -0.53204143 -0.2340761
0.22591616 0.2126717 -0.19994548 -0.3041758 -0.10540606 -0.054771103 0.11961625 0.0756565
0.2210586 -0.59119 -0.035520688 -0.21621658 -0.42986053 -0.26731938 0.42708457 0.41030297
-0.072469614 -0.19724318 -0.38060516 -0.37356257 -0.2607681 0.021351181 0.41557062 0.20423688

fc1.bias f4 [2]
00000000: 88b5 74bd a797 f0bd
-0.059743434 -0.117476754
